model-doom.pth (torch, 78242 bytes, 27 tensors)

weight f4 [8, 1, 3, 3]
000000 c3 1f df be b8 23 de 3e 4c 5d 3a 3e 2f 36 8d be
       -0.4357892 0.43386626 0.18199652 -0.275804
000010 ec e4 c7 3c 1a 45 ac 3e 11 14 5a 3e 3f c1 4a be
       0.02440115 0.3364647 0.21296717 -0.1980028
000020 41 06 22 3f 46 c1 f7 37 13 6b 8a 3e c5 c6 58 bf
       0.6329079 2.9534694e-05 0.27034816 -0.846783
000030 b1 86 31 3f 1c 56 eb be 22 be ae be 6f af c3 3e
       0.6934615 -0.45964134 -0.34129435 0.38219783
000040 04 43 7e bf 1a 04 72 3f 0c a4 26 3e f2 42 d0 bd
       -0.9932101 0.9453751 0.16273516 -0.10169019
000050 b8 bb c3 3d 32 fe d2 be 35 9e 97 be 9b 45 4d bf
       0.09557289 -0.4120956 -0.2961289 -0.80184335
000060 1b 8e 74 be 06 5b 08 3e 89 87 3c 3f a7 b9 40 be
       -0.23882334 0.13315973 0.7364431 -0.18820821
000070 57 9e f1 3e 4a 4b 35 be bb 55 f8 3e e2 27 fb 3e
       0.47191116 -0.17704502 0.48502907 0.49053866
000080 49 f2 e1 be 7f 1d 11 3e ec b1 cf 3e db 03 db be
       -0.4413016 0.14171408 0.4056543 -0.4277638
000090 8f b3 b5 3d 8f a9 df 3e 63 b2 97 3e b1 37 08 3f
       0.08872139 0.4368405 0.29628286 0.5320998
0000a0 07 d0 94 3e 67 42 73 bf da 79 37 bf cf 0a 9a 3e
       0.29064962 -0.95023197 -0.71670306 0.3008637
0000b0 d1 39 16 bf d2 a4 df 3e ec 3e 10 bf c3 5f 0e 3f
       -0.5868197 0.43680435 -0.5634601 0.5561487
0000c0 1e 1d d7 bd 31 e6 4c bf 1a 00 a0 3e fe 46 3e 3e
       -0.105036005 -0.80038744 0.31250077 0.18581769
0000d0 76 07 35 be 06 29 85 be 29 80 1a 3f 0e 06 d6 3c
       -0.17678627 -0.2600786 0.60351807 0.026125934
0000e0 a4 7a b1 3e 66 ce 8b 3d cd 68 18 bd 6b f2 96 3e
       0.3466388 0.06826477 -0.03720932 0.29481825
0000f0 84 e2 df bd 70 5a db 3c 87 3c d7 bd 94 1a b9 3e
       -0.10931876 0.026776522 -0.105095915 0.3615309
000100 2c fb b8 be 04 6a 57 3d 97 16 4a be 3b 72 2a be
       -0.3612913 0.05259134 -0.1973518 -0.16645138
000110 a0 1a f2 be 69 90 a3 3e 1c a8 00 3e d5 70 d0 be
       -0.47285938 0.31946114 0.12564129 -0.40711084

weight f4 [8]
000000 73 77 50 3f be f8 a0 3f 55 f5 96 3f c6 11 64 3f
       0.81432265 1.257591 1.1793619 0.8908962
000010 1e f3 8c 3f 83 df 85 3f 04 81 62 3f 02 6a 82 3f
       1.1011693 1.0458835 0.8847811 1.0188601

bias f4 [8]
000000 4b c7 03 be 03 09 8b be 90 2f 75 3c e0 ff a0 be
       -0.12868993 -0.27155313 0.014964953 -0.31445217
000010 bc 67 9a bd 17 76 44 be bd fb 47 be be 2a 01 bd
       -0.07539317 -0.19185673 -0.19529624 -0.031534903

running_mean f4 [8]
000000 f9 10 99 3e 48 64 e2 bd e9 b1 6b be 3c 5e 78 3e
       0.29895762 -0.110542834 -0.23017086 0.24254698
000010 3a 8b df bd 3a 8b 0a be a3 c7 b5 3e 44 2a 78 be
       -0.10915227 -0.13529673 0.35503873 -0.24234873

running_var f4 [8]
000000 4f 4b 4e 3c bf 82 20 3c 0d bf 51 3c e9 2f 48 3c
       0.012591197 0.009796797 0.012801898 0.012218454
000010 15 97 69 3c 89 59 d5 3b d6 e8 94 3c b8 c6 25 3c
       0.014257212 0.0065109176 0.018177431 0.010118179

weight f4 [8, 8, 3, 3]
000000 2f 1b b8 3d 77 16 88 3d 9e 61 95 be a4 c0 c9 bd
       0.0898956 0.0664491 -0.29176039 -0.098511964
000010 e9 2f 97 be 4c 60 ca be d0 e8 a8 3d bf 75 99 bd
       -0.2952874 -0.39526594 0.082475305 -0.074931614
000020 73 3d af be a6 63 cf bd 7f e7 0c bf 59 b1 aa 3e
       -0.3422657 -0.10126428 -0.55040735 0.3333843
000030 6f 74 f0 bd 25 78 1f bc 53 ba ee 3c d3 3f a4 3e
       -0.11740958 -0.0097332345 0.02914158 0.32079944
000040 ed 7e 12 3f bb dc 8a 3d 79 f3 22 be 55 b3 99 3d
       0.57224923 0.06780382 -0.1591319 0.07504908
000050 5c 91 c1 bd 18 c7 54 be 32 d7 02 bd 42 43 1f be
       -0.09451553 -0.20779073 -0.031943507 -0.15553
000060 c6 e1 08 3e 0d dd 20 3e 1f 97 aa 3d 7f ff 38 3d
       0.13367376 0.15709324 0.08329605 0.045165535
000070 67 66 c9 bd ae d1 ad 3e a1 4a b2 3e 74 5a f6 bd
       -0.09833985 0.33949035 0.34822562 -0.12028971
000080 07 83 9c be 4c ed ae bd 87 24 a3 be 48 82 9e be
       -0.30568716 -0.085413545 -0.31863806 -0.30958772
000090 9d db a0 3d 20 11 a6 be 4c 10 b9 bc 2a 64 58 be
       0.07854388 -0.3243494 -0.022590779 -0.2113196
0000a0 f8 67 c4 3e 22 90 e8 bd 72 ae 84 3e f6 b3 d3 be
       0.38360572 -0.11355616 0.2591434 -0.41348237
0000b0 c0 ce 03 3e bf 53 6c be b1 5a e4 bd 5a 97 80 3e
       0.12871838 -0.23078822 -0.111501105 0.25115472
0000c0 0d a9 be be bf b0 f3 bc 89 07 f1 3e cc 1f 4e 3e
       -0.3723835 -0.029747365 0.4707606 0.20129317
0000d0 bc 57 06 3e 9b 8d de 3d 41 08 19 be ae f6 e4 3d
       0.13119406 0.10866853 -0.14944555 0.11179863
0000e0 3b 64 6f 3e 58 82 b3 be 6f 2c ac bd 7e 7c 81 3d
       0.23378079 -0.35060382 -0.084069125 0.06322573
0000f0 4b 01 52 bd cd 2c 82 be 31 d9 44 be d3 3b 7d 3d
       -0.051270764 -0.25424805 -0.19223477 0.06182463
000100 7d a8 13 be c3 c9 36 bd 5a dc af 3c 50 af 26 bc
       -0.14419742 -0.04462601 0.021467377 -0.010173634
000110 78 b7 26 3e a2 b7 d1 3d a5 7a a3 3e d5 b0 c8 3c
       0.16280925 0.10240103 0.31929508 0.024498383
000120 9e cc 62 3c 8d 39 52 be 3e 8f 45 be 02 00 72 bd
       0.01384273 -0.20529766 -0.19292924 -0.05908204
000130 99 44 6c bc 77 67 11 3e 19 49 58 be 4d 66 81 be
       -0.014420652 0.14199625 -0.21121635 -0.25273362
000140 e6 b2 55 3e 21 35 95 be 45 79 c5 be 8c 5f 70 3c
       0.20869026 -0.29142097 -0.38569084 0.014671218
000150 8b d6 7e bd 58 37 ba 3e d3 6f a2 be 46 e3 b2 3e
       -0.062216323 0.3637035 -0.3172594 0.3493902
000160 7c cb 30 be 9c b6 20 bd 68 13 51 3e 8f 0a c6 3d
       -0.17265123 -0.03923665 0.20417559 0.09669983
000170 7b 87 cd 3e 4c 91 9c 3d 91 01 cd be 23 4b e7 bd
       0.40142426 0.07644901 -0.40040258 -0.11293628
000180 19 92 31 3d 25 7d 2a 3d fc d6 51 be ed ee ab be
       0.04335222 0.041623253 -0.20492166 -0.33580723
000190 62 44 6f bd b2 1d 7a bd 27 af 07 3e d7 ed fb 3d
       -0.058414824 -0.061063476 0.13250409 0.12301224
0001a0 b1 a6 9c bd 88 12 14 be 52 c1 9a bd 1d 53 4e bc
       -0.07648981 -0.14460194 -0.07556404 -0.012593058
0001b0 b5 c2 ee 3b ee ed 81 bb 86 8e 97 3e 26 6b 47 be
       0.0072863945 -0.003965131 0.29600924 -0.19474468
0001c0 e2 00 9b 3c 79 b0 31 3d e9 92 93 3e a9 5e bc 3d
       0.01892132 0.043381188 0.2882302 0.091977425
0001d0 67 b7 05 3d 9f ea a6 3e ab 49 55 3e 86 71 4d be
       0.03264561 0.32600877 0.20828883 -0.20062837
0001e0 14 3d 9d be 01 91 31 be 53 ab 98 be 94 70 c1 bd
       -0.3071066 -0.17340471 -0.2981821 -0.09445301
0001f0 f7 01 78 3d df 56 13 be 7b 30 02 be 01 70 f7 bc
       0.06054875 -0.14388607 -0.12713806 -0.030204775
000200 c5 44 22 bc 13 21 ec 3c 07 31 57 bd ad de 2b 3d
       -0.009904091 0.028824365 -0.05253699 0.041960407
000210 4d aa ee 3d 46 8b 90 3d 01 8d 41 bd ee 3c 4d 3e
       0.11653576 0.07057814 -0.047253612 0.20042774
000220 43 f7 e8 3c f1 78 09 3d 7f 97 d1 bc ea 67 d9 bd
       0.028438216 0.033562604 -0.025584934 -0.10615523
000230 3f cc 9d be 56 30 5b bd 71 10 87 ba 19 d3 7f 3d
       -0.3081989 -0.053512894 -0.0010304583 0.062457178
000240 ab 4b 75 be c9 e5 fc bd 98 cc 77 3c 44 b3 ba be
       -0.23954646 -0.123485155 0.015124463 -0.36464894
000250 cf df 06 be 65 84 95 3e d7 89 b8 be 83 5d 4f bd
       -0.13171314 0.29202572 -0.36042663 -0.05062629
000260 a5 70 f7 3d 07 4d a9 be 8c 54 12 be 30 77 a2 3e
       0.12082032 -0.3306658 -0.14290065 0.31731558
000270 fd be 1e 3f 4d e6 70 bd df 84 22 3e d2 67 84 bd
       0.62010175 -0.058813382 0.15870999 -0.06465115
000280 76 87 bd be c0 50 05 3c f5 82 00 bf 7e 2c b8 bd
       -0.3701741 0.008136928 -0.50199825 -0.08992861
000290 b9 42 fc bd 35 b9 96 bd 68 ae 4a be 17 f6 c2 bd
       -0.12317414 -0.07359544 -0.19793093 -0.09519594
0002a0 d1 75 92 bb d1 c1 f2 3e 89 ff b6 3d fb d6 7e 3e
       -0.004469611 0.47413495 0.08935458 0.24886696
0002b0 87 72 03 3e 09 57 44 be 80 db 25 3e 2c c8 a4 bb
       0.12836657 -0.19173826 0.16197014 -0.005028745
0002c0 fa 59 f6 bd ff 63 b4 3c da 57 92 be d3 2e 5a be
       -0.120288804 0.022020338 -0.2858265 -0.21306925
0002d0 8f 46 0c be f8 57 b9 3d 61 4f e2 3c 3c 20 db 3e
       -0.13698791 0.09049982 0.027625741 0.4279803
0002e0 42 a1 9a 3e 09 d8 1c bf ba f9 8b 3e af ee 62 bd
       0.30201155 -0.61267143 0.27338964 -0.055403408
0002f0 3a a3 c3 bd 4e da a3 3d ed 54 e8 3d 0a c1 5d 3e
       -0.09552617 0.08000623 0.11344323 0.2165567
000300 4b 34 4f 3e 28 d8 ee be 8e cc 4f be a2 19 38 3d
       0.20234792 -0.4664929 -0.20292875 0.04494632
000310 67 f6 52 3c 86 be 49 3e be a5 29 3d 96 ad 85 bd
       0.01287613 0.19701585 0.04141783 -0.065272495
000320 81 b2 24 be ce cd 40 3d c2 05 76 3c a8 35 d8 bd
       -0.16083719 0.04707127 0.015016021 -0.10557109
000330 42 c6 80 be 30 0c 5a be 95 60 07 3d 55 c3 ce 3d
       -0.2515126 -0.21293712 0.033051092 0.100958504
000340 3d f4 7a bd 64 b1 61 3b 79 a6 9f 3d 7e 7d 05 3d
       -0.06126808 0.0034438008 0.07795424 0.03259038
000350 23 4f 4c bd ac 93 1a 3f 31 b8 9d be 75 c5 13 bc
       -0.04988016 0.6038158 -0.3080459 -0.009019245
000360 67 8d 8a 3d 72 66 56 3e 25 b4 0a 3d 38 7d 8c 3c
       0.067652516 0.20937517 0.033863205 0.017149553
000370 a2 7c 93 3e 49 fe 0e bc ae 75 98 be 13 00 07 bc
       0.28806025 -0.0087276185 -0.29777282 -0.008239764
000380 14 02 f3 bd 87 d7 62 3e 02 df 85 be 4c cb a1 bd
       -0.11865631 0.2215253 -0.26146704 -0.07900104
000390 37 dd 5d bd 7d 82 cf 3d 0f 27 32 bd 4e 18 02 be
       -0.054166045 0.101323105 -0.04349428 -0.12704584
0003a0 7a d2 66 3d 19 20 1a 3e 97 c5 25 be 60 c6 a0 bd
       0.05635307 0.15051307 -0.16188656 -0.07850337
0003b0 69 75 89 3c f3 c4 8d be e6 d5 b5 be 70 13 d0 bd
       0.016779618 -0.27689323 -0.35514754 -0.101599574
0003c0 31 e2 ab 3d a2 93 d7 3d 90 82 3a bd 93 92 13 bd
       0.08392752 0.105262056 -0.04553467 -0.036028456
0003d0 f4 a8 1e be d2 fc 57 3d 84 90 91 bd 98 86 da bc
       -0.15494138 0.052731343 -0.07107642 -0.026675507
0003e0 ac 9f e4 3d 48 e5 cb 3e 24 19 64 be a4 e9 46 3e
       0.111632675 0.39823365 -0.22275215 0.19425064
0003f0 59 e8 74 bd 18 18 e8 bc 13 de 25 3e 47 14 10 be
       -0.059791896 -0.028331801 0.16197996 -0.14070235

weight f4 [8]
000000 b1 98 77 3f 56 9f 93 3f 10 c5 81 3f 7c 1c 7b 3f
       0.96717364 1.1533 1.0138264 0.9809034
000010 86 2f 8f 3f 1d 17 85 3f 48 78 8e 3f ed 7f 5d 3f
       1.1186378 1.0397679 1.1130457 0.86523324

bias f4 [8]
000000 ef f8 57 be 63 7e 80 be f5 a6 b6 bb 9c 4d d2 bd
       -0.21091054 -0.25096425 -0.005574102 -0.10268709
000010 10 30 51 be 6d 6b 9d be ab 46 aa be 99 16 5c be
       -0.2042849 -0.30746022 -0.3325704 -0.21492995

running_mean f4 [8]
000000 76 c9 0f bf 62 26 17 bf 72 7d 05 bf 20 d7 e4 be
       -0.5616678 -0.5904294 -0.5214454 -0.44695377
000010 3a 38 81 bf 6d 1d e4 3d 9c 79 96 bf db 6c 98 bf
       -1.0095284 0.11138425 -1.1755862 -1.190822

running_var f4 [8]
000000 30 e2 1a 40 19 da 81 3f 79 7e 02 40 49 98 b6 3f
       2.4200554 1.0144683 2.0389693 1.4265224
000010 2a 0a 39 3f e7 32 59 3f d0 d7 70 3f 0d 12 c0 3f
       0.72281134 0.84843296 0.94079304 1.5005509

weight f4 [8, 8, 3, 3]
000000 a8 7b 67 3e 59 9f 9b 3e 96 de b1 3d 4f 50 10 be
       0.22605765 0.3039501 0.08685033 -0.14093135
000010 f5 64 a0 3c cc 95 2c 3e 75 67 0e 3e 90 76 10 be
       0.01957939 0.16854018 0.13906653 -0.14107728
000020 92 64 21 be 36 eb 8d be 25 9f d2 3d be c0 15 3c
       -0.15761021 -0.27718514 0.10284261 0.009140192
000030 85 3c f8 3e 61 bd 5b bd 7f fb 90 bd bb 02 56 3e
       0.48483673 -0.053647403 -0.07079219 0.20899479
000040 56 2e 82 3e 6d 3e 36 be 00 b2 3b be 91 89 4a 3e
       0.25425977 -0.17797251 -0.1832962 0.1977904
000050 c3 bb 2a 3e cc 02 86 3e e4 06 2c 3e a1 65 82 be
       0.16673188 0.2617401 0.16799504 -0.25468162
000060 b8 f0 96 be 5f 9c 86 3d 35 60 ea be 25 33 43 bc
       -0.2948053 0.06572794 -0.45776525 -0.011914049
000070 8a 98 1e be 67 5f 7e be 99 f4 10 be 94 33 43 be
       -0.15487877 -0.2484108 -0.14155807 -0.19062644
000080 f8 04 f7 3c 10 40 3e be 5d 1a 9e bd 7f 49 39 be
       0.030153736 -0.18579125 -0.07719872 -0.18094443
000090 a1 75 d2 3d d1 38 62 bc d1 e9 9b 3d 8d 32 99 ba
       0.10276342 -0.013807491 0.07612956 -0.0011688039
0000a0 e5 4c 06 3e b9 59 4c bd 1f e7 bc be 21 25 a0 be
       0.1311527 -0.049890254 -0.3689508 -0.31278327
0000b0 d0 31 c0 bd a1 de 9b 3d 26 4f 8c 3e cb 8e 9c 3d
       -0.09384501 0.076108225 0.27404135 0.07644423
0000c0 cf f9 0e bd 81 09 5f be 51 59 9f 3e 0b 00 e1 bd
       -0.034906205 -0.21780969 0.3112283 -0.10986336
0000d0 8b 3b eb be aa f4 c5 3e c5 c5 e6 3d e6 df 00 3e
       -0.45943865 0.38663226 0.1126819 0.1258541
0000e0 ba 75 cc 3d 36 ed 0a 3f 19 f5 1a 3e a0 19 3a bd
       0.09983392 0.54268205 0.1513256 -0.045434594
0000f0 bc c2 ce be 26 72 1e be cc 93 2a 3e 59 92 3f 3e
       -0.40382946 -0.15473232 0.16657943 0.18708171
000100 9e d6 95 bd 86 fe 08 bd 76 1f e5 bd d7 5a d9 bc
       -0.073163256 -0.033445857 -0.11187641 -0.026532574
000110 08 aa 89 3d 57 db 5f 3d 1c 06 0a 3e 5b f1 88 3e
       0.06721884 0.05465254 0.13478893 0.2674664
000120 ef fa 59 3e f3 bc 83 3e b2 dd 01 3e 46 d2 1d 3e
       0.2128713 0.25730094 0.12682226 0.15412244
000130 03 cb 50 be 41 4a e0 3c d3 6a c8 be 2e eb 13 3e
       -0.20389943 0.027379157 -0.39144 0.14445183
000140 a1 49 98 bc bd 6b ad bd 04 4d 96 be fe 29 fe be
       -0.018589796 -0.08467815 -0.29355633 -0.49641412
000150 fe 82 20 3e e8 6c a8 bc b7 8f 92 3e 25 ab 30 3d
       0.1567497 -0.020559743 0.2862527 0.043131966
000160 77 4f cd bd f4 cd fc 3d be 7a 98 be 32 7c 33 bb
       -0.10024922 0.1234397 -0.29781145 -0.0027387259
000170 17 72 00 3e b0 aa 70 3e 8c 8a a5 be 1d 49 e2 bd
       0.12543522 0.23502612 -0.32332265 -0.110491015
000180 39 67 62 bd 8a 3f 90 3e 26 8b b7 bd 93 72 af 3d
       -0.055274222 0.28173476 -0.08962087 0.08566775
000190 09 1b ed bc 25 f6 21 be 55 7a 17 bf d0 bf 1b 3e
       -0.028943555 -0.15816553 -0.5917104 0.1520989
0001a0 de a8 8d 3e 28 84 6a be 22 2a fe 3d 48 77 06 bf
       0.27667898 -0.22901976 0.1241038 -0.5252576
0001b0 fd cf a4 bd 30 50 4c be 55 f4 a7 bd d8 18 72 be
       -0.08047483 -0.19952464 -0.082008995 -0.2364229
0001c0 20 7f b0 3d 2d fd 30 3e 7a 3a 2e 3e 57 e8 30 bf
       0.08617997 0.17284079 0.17014495 -0.6910452
0001d0 e7 87 16 3e 32 17 99 3d 66 04 b8 be 30 e9 51 be
       0.1470028 0.07475127 -0.35940856 -0.2049911
0001e0 75 03 b7 bd f6 ba 85 3d c9 8b 01 be 06 fc a9 3d
       -0.08936206 0.065298006 -0.1265098 0.08300023
0001f0 4a 50 93 3c 79 ba c8 bd 39 30 51 be 17 a2 d8 3e
       0.01798262 -0.09801192 -0.20428552 0.42311165
000200 cf 2a a7 3e 83 36 85 3d db f2 8d 3d f8 f8 bd 3e
       0.32649848 0.06504538 0.06931087 0.3710401
000210 3a 51 52 bd 9c c1 d5 3e 51 a4 3d 3e 6e b2 6e be
       -0.051346995 0.41749275 0.18519713 -0.23310253
000220 f6 c1 cc be bc 66 6e 3e 66 cb a7 be f1 25 8e bd
       -0.3999173 0.23281378 -0.32772368 -0.069408305
000230 18 25 b4 3d d7 6a 26 3d 85 25 11 3f be 23 f1 3e
       0.087961376 0.040629234 0.56697875 0.47097582
000240 2f 00 2e 3d e6 0a b8 3d 66 fa 03 be 44 38 27 3e
       0.042480644 0.08986454 -0.12888488 0.16330057
000250 4a 4f d0 bd 7a a3 9b be f0 ee 11 3e 37 24 23 3e
       -0.10171373 -0.3039816 0.14251304 0.15931784
000260 a8 9a 39 be 37 f2 77 bc b0 d5 a4 bd f5 29 21 3b
       -0.18125403 -0.015133432 -0.0804857 0.0024591659
000270 df e0 fc 3b ca 01 5e 3b 39 08 61 bd 39 65 94 be
       0.0077172364 0.0033875578 -0.054939482 -0.28983477
000280 ec 16 75 be 0f e4 41 be 18 ca 9a bd d9 db 91 bc
       -0.23934525 -0.18934654 -0.075580776 -0.017805027
000290 cf 94 5e 3e db a5 d0 be 92 75 cc 3d 58 63 c3 be
       0.21736453 -0.40751538 0.09983362 -0.3816173
0002a0 02 f7 22 be 9b cc c8 bd 62 9f ac bd 2a d5 10 bc
       -0.15914539 -0.098046504 -0.08428837 -0.008839885
0002b0 e7 53 4a bd 14 8c 6f be f0 af 1d 3e 16 35 41 3e
       -0.04939642 -0.2339328 0.15399146 0.18867907
0002c0 45 ae 91 3d 46 67 e7 bd 82 f0 24 bc c1 68 22 3e
       0.071133174 -0.11298995 -0.010067107 0.15860273
0002d0 c5 4c 84 bd c4 b1 61 ba 0c c6 34 bd 05 60 8e 3d
       -0.06459955 -0.0008609558 -0.044134185 0.06951908
0002e0 a5 03 67 3d 40 d5 e2 3d 81 38 23 be cf 04 14 bd
       0.05639996 0.110758305 -0.15939523 -0.0361374
0002f0 70 0d 1f be 25 b9 62 be de 5f 32 be ba b7 c6 3d
       -0.1553247 -0.2214094 -0.17419383 0.09703012
000300 42 b9 26 3e 85 ea 38 3e af 78 92 3d c5 92 1a 3e
       0.16281608 0.18058212 0.07151925 0.1509505
000310 e8 7d 5b be 79 52 47 be 2c c1 23 be 54 f0 a1 3c
       -0.21434748 -0.19465055 -0.15991658 0.019767918
000320 1c 3f 59 bd f6 f9 a8 bd a1 02 35 be 00 26 57 3d
       -0.0530387 -0.08250801 -0.17676784 0.052526474
000330 f8 f3 11 be c8 4d 80 bd f3 22 de bd 1b dd 4d 3e
       -0.14253223 -0.062648356 -0.1084651 0.20103876
000340 8b b5 0b be a7 c3 19 3e e4 6a 4f bd c4 16 73 bc
       -0.13643472 0.15016042 -0.05063905 -0.014836971
000350 2d b7 fd 3d 43 e6 b0 be bc 8d 00 bd bb 77 20 be
       0.12388454 -0.34550676 -0.03138517 -0.15670674
000360 a8 d2 e7 3c 8c d2 af 3c 8e 2a 22 3e b7 1f 1f 3e
       0.02829869 0.021462701 0.15836546 0.15539442
000370 ea ba 6c be 11 50 83 be 76 10 6a 3c 96 6b 9b bd
       -0.23118177 -0.25647023 0.014286151 -0.0758888
000380 ce de 48 be e4 4d 2f be a7 fd db 3d 7d b6 16 be
       -0.19616243 -0.17119557 0.1074174 -0.14718051
000390 19 42 b3 bd be d3 2f be 90 40 5c be 74 e7 d5 bd
       -0.087528415 -0.17170617 -0.21509004 -0.10444537
0003a0 32 8a 77 bd b0 83 c1 bd 28 ae ce 3d b7 5d 0b bd
       -0.060434528 -0.094489455 0.100918114 -0.03402492
0003b0 10 0f 55 be 36 04 33 3e cd 90 43 bd ee 09 26 be
       -0.20806527 0.17482075 -0.047745515 -0.16214725
0003c0 75 59 12 3e 62 7c a1 be ac 6c cd bd 40 7f 4a be
       0.14291938 -0.3154021 -0.10030493 -0.19775105
0003d0 b5 48 62 be 9e 14 15 3d a9 c2 84 3d 0f a6 79 be
       -0.22098048 0.036396615 0.06482441 -0.24379753
0003e0 38 3f d9 3c 51 1d 16 3e f3 d3 53 3e 2f d8 21 be
       0.026519403 0.14659621 0.20686321 -0.15805124
0003f0 d3 36 b9 3e 9e 97 99 3d aa 67 a2 bd b1 96 df bd
       0.3617464 0.07499622 -0.079299286 -0.10917414

weight f4 [8]
000000 a5 90 63 3f d3 b5 8c 3f 4c 4e 6e 3f b3 9c 42 3f
       0.88892585 1.0992988 0.9308822 0.76020354
000010 b8 53 60 3f c3 5a 84 3f 53 15 50 3f d6 4e 6f 3f
       0.87627745 1.0340198 0.8128254 0.9347967

bias f4 [8]
000000 d6 b2 0d bf 9f 33 2a bf 50 97 a5 bd 52 c0 14 be
       -0.55351007 -0.6648502 -0.08085501 -0.1452649
000010 bc cd 94 be 35 89 db be f3 af d1 be cf 70 33 bf
       -0.29063213 -0.42878118 -0.4095455 -0.7009401

running_mean f4 [8]
000000 8b b6 14 bf 7e dd 18 bf 12 ee 46 bf 9a 24 35 bf
       -0.5809104 -0.5971297 -0.77707016 -0.70758975
000010 bb 24 94 be 22 2a 3c 3f 7d 12 9b be 3b da e3 3e
       -0.28934273 0.7350179 -0.30287543 0.44502434

running_var f4 [8]
000000 1a 7c 37 3f c6 0b a8 3f e2 82 47 3f 05 02 35 3f
       0.7167374 1.3128593 0.77934086 0.70706207
000010 9e 11 ed 3e 23 7f 43 3f 68 38 df 3e 12 67 2e 3f
       0.46302503 0.7636587 0.43597722 0.6812602

weight f4 [16, 8, 3, 3]
000000 0f 7d 5e be 49 bb 22 3e ac e7 e0 bd b9 59 40 be
       -0.21727394 0.15891756 -0.10981688 -0.18784226
000010 aa c3 36 3e 70 60 2d 3e d0 8b b1 bc 87 66 46 be
       0.17848077 0.16931319 -0.021673113 -0.19375049
000020 c7 8a 24 3e a8 e6 02 3e 40 ed ae bc 70 b9 42 bc
       0.16068564 0.12783301 -0.021353364 -0.011885032
000030 83 81 e7 3d 4a 5f d5 3e 22 10 f1 bb 77 5f 43 bd
       0.11303999 0.41674262 -0.0073566595 -0.047698464
000040 9a d3 cd 3d bf 92 ad bd 18 89 cb 3d 3e 31 1b be
       0.100501254 -0.08475255 0.09938258 -0.15155503
000050 07 d2 ac 3c 70 d1 e8 3c 77 6c 87 be e5 87 fd bd
       0.021096243 0.02842018 -0.2644994 -0.123794354
000060 de b2 05 be 75 42 2d 3d a3 c9 82 3d 0e 61 64 bd
       -0.13056514 0.042299706 0.063861154 -0.05575662
000070 56 04 35 bc 98 a8 6b 3d 13 05 3d 3d 2a 3b 6e 3d
       -0.011048397 0.05753383 0.046147417 0.058161892
000080 5c 24 48 3c 9b 04 57 bd 4b 82 35 3d d3 e4 c5 bd
       0.0122157 -0.052494626 0.04431371 -0.096627854
000090 1f b0 7d be 82 f3 9f bd 14 2f 14 bc e9 47 93 bc
       -0.24774216 -0.07810117 -0.009044427 -0.017978625
0000a0 28 d5 d9 bd b6 fa 8c bd 32 50 84 3d bd b3 4c 3e
       -0.106363595 -0.06883757 0.064606085 0.1999044
0000b0 27 14 30 3d ad 1d dc bc bf 75 a7 bd fd 74 91 bb
       0.04298797 -0.02686962 -0.08176755 -0.004438995
0000c0 87 f9 77 bd 6c c2 4b be 59 c3 83 3c bd 98 08 3e
       -0.060540702 -0.19898385 0.01608436 0.13339515
0000d0 ef 8a 5a be 84 6b ef bd b9 c4 12 3e 53 94 0d be
       -0.21342061 -0.11690429 0.14332856 -0.13826112
0000e0 3d 37 e6 3d 25 2e c9 3d 4b cc 96 3d 03 85 86 3d
       0.112410046 0.098232545 0.073631845 0.06568339
0000f0 a0 03 a7 3d 87 b7 7b 3e 5e 67 9f bc 4a de d9 bd
       0.08154988 0.24581729 -0.019458469 -0.106381014
000100 da 05 c1 bd 87 a8 35 3e ed f2 44 3e 55 05 59 3e
       -0.09424944 0.1774007 0.19233294 0.2119344
000110 55 1b 0e 3e a0 e5 42 3b 70 2b c6 bc c8 86 64 3b
       0.13877614 0.0029738918 -0.024190634 0.0034870375
000120 32 26 57 3e 43 38 59 3e 82 8c cc 3c 35 79 2b 3d
       0.21010664 0.21212868 0.024969343 0.04186364
000130 39 a1 7b 3e e5 50 bd 3d a9 43 27 be 7b 72 af bd
       0.2457322 0.09243945 -0.16334404 -0.08566757
000140 8b 22 a1 3d 9e 9e ea bd a1 45 98 3e 1e 1a d7 3e
       0.07867917 -0.11456035 0.29740623 0.42012113
000150 a8 64 fc 3d 93 ae b6 bd 91 62 dd bc 71 e3 e9 3d
       0.12323886 -0.08920016 -0.02702454 0.11420334
000160 de 07 f8 bc db 62 7b 3d d2 c5 11 be 28 c3 03 3d
       -0.030277189 0.061373573 -0.14235619 0.032168537
000170 17 8a 02 3d 28 55 38 3d 28 4b be bc 86 89 7c be
       0.031869974 0.045003086 -0.023229197 -0.24661836
000180 90 6c 74 3c e4 1d 32 3d 6b 0d 15 3d 47 ee e3 bb
       0.014918461 0.043485537 0.03638975 -0.006955895
000190 f9 17 dc 3d 92 ec aa 3d 6c 53 a6 3d d6 b3 76 3d
       0.1074676 0.083459035 0.0812138 0.0602301
0001a0 75 c7 45 be 7f aa c7 3c 5d 8b 5e bd 01 a6 b7 3d
       -0.19314368 0.024373291 -0.054332126 0.089672096
0001b0 ac be 94 3c 1c 7a 6f bd aa f9 3e bd 50 a1 ec bc
       0.018157326 -0.058466062 -0.046624817 -0.028885514
0001c0 17 03 af 3b 8a 19 1b 3e bb 99 45 3d bb 76 93 3d
       0.0053409445 0.15146461 0.048242312 0.072003804
0001d0 c6 b4 65 3b cc 2d 35 bc 56 8b 92 bd 02 6e 86 bd
       0.0035050376 -0.011058282 -0.071554825 -0.06563951
0001e0 7d a1 be b9 27 54 9e bc 5c ae 41 3d b3 ec 2f be
       -0.00036359942 -0.019327236 0.047285423 -0.17180137
0001f0 7c 94 5d bd 27 7a f9 bd 7d 76 e5 bd 46 ca 04 bd
       -0.054096684 -0.12181502 -0.112042405 -0.032419465
000200 dc 13 fa 3d d4 97 36 3e 5d 99 a9 3d de 38 34 3d
       0.12210819 0.17831355 0.08281205 0.043999545
000210 d0 a2 a6 3d 4d e4 1f 3e 53 c2 04 3c 55 93 ba bd
       0.08136523 0.15614434 0.008102971 -0.091101326
000220 d5 30 b9 bc 72 95 ed 3b 43 bb c8 bb 4b 9d 9d 3d
       -0.022606293 0.0072504813 -0.006125839 0.07696017
000230 d5 27 65 3c 26 6d 44 bd 8e 10 5c 3d 10 b7 5f 3d
       0.0139865475 -0.047955655 0.053726725 0.05461794
000240 d8 ce db 3d fe 23 c7 bd 14 7a 06 be 10 0e 7f bd
       0.10732812 -0.09723662 -0.13132507 -0.06226927
000250 5e c2 ca 3d 10 98 e1 3d c7 fe 43 3b 0b 78 dd 3a
       0.09900354 0.11015332 0.0029906498 0.0016896738
000260 7b d4 8d be a2 01 d0 3e 5d c8 6e 3e 2e 62 ef 3d
       -0.27701172 0.40626246 0.2331862 0.11688648
000270 c4 c1 07 be 06 53 32 bd c1 be 77 3d 0d 2a b3 bc
       -0.1325751 -0.04353621 0.06048465 -0.021870637
000280 b0 3a 2b 3e 4f 34 84 3d 01 4c 2a be 7e fe 9c 3d
       0.16721606 0.064552896 -0.16630556 0.07665728
000290 e6 e4 14 3e 67 31 ee bb ad 51 0f be 55 56 25 bc
       0.14540443 -0.007269073 -0.13996 -0.010091384
0002a0 02 43 0e be d6 d3 b6 3c 2c 2d b4 3c fb c9 7c 3d
       -0.13892749 0.022317808 0.021994196 0.06171606
0002b0 60 ed 05 be b6 c5 15 bb 73 c8 ab bc de c1 10 be
       -0.13078833 -0.002285344 -0.020969605 -0.14136454
0002c0 bb 89 9f bd 08 07 64 3e 76 b1 0b 3d 1b ea dc bd
       -0.07789942 0.22268307 0.034104787 -0.107868396
0002d0 6f 26 c8 3d b8 ae d4 bc db 17 08 be 91 1d 8f 3c
       0.097729556 -0.025962219 -0.1329035 0.017470153
0002e0 db b3 ae 3d 96 65 08 3d 61 95 25 be 84 e9 f8 bc
       0.085303985 0.033300005 -0.16170265 -0.030384786
0002f0 1e 9d 82 3d 23 9b 9d bd 06 a7 62 bd 79 74 c3 bc
       0.06377624 -0.076956056 -0.055335067 -0.02385925
000300 94 6b 3f 3d 1f 25 cc bb 71 ed fc bd 9d ab 4d be
       0.046733454 -0.006230011 -0.12349976 -0.20084997
000310 b3 a4 2d be 61 15 0d be 54 40 ac bc 4c bf 9d bd
       -0.16957359 -0.13777687 -0.021026768 -0.077025026
000320 68 45 71 bd c9 22 38 3e c6 b9 af 3d a3 d0 2d 3e
       -0.05890408 0.1798202 0.08580355 0.1697412
000330 8a f0 b0 3d 06 f6 b8 3d cf 82 b9 bd 43 a1 be bc
       0.08639629 0.090313 -0.09058153 -0.023270255
000340 c4 5f bc bd 55 54 4c bd a5 51 a6 3d 24 e7 93 3d
       -0.09197953 -0.049885113 0.08121041 0.07221821
000350 f3 7e cc 3d 7b fa a6 3d 18 e8 09 3d 93 49 e2 3a
       0.09985151 0.08153244 0.033668607 0.0017264358
000360 0d 98 02 3e 1f 96 08 be 18 e2 20 be 8a 2f da bd
       0.12753315 -0.13338517 -0.15711248 -0.106535986
000370 eb 96 3a bd 21 aa 1b be b6 73 ac 3c f5 7c 39 bd
       -0.045554083 -0.15201618 0.021051269 -0.045285184
000380 ae 35 6c bd 3d 2a 7b 3e 24 7e 15 3e 80 75 bd 3d
       -0.05766838 0.24527831 0.145989 0.09250927
000390 b1 39 3b be 21 68 9b bd 7d 5c b2 3d c9 5f fc bd
       -0.18283726 -0.075882204 0.08709047 -0.12322957
0003a0 b9 a2 ba bd 0b 97 32 3e e2 10 2a be a0 6e 06 3d
       -0.09113068 0.17440431 -0.16608003 0.032820344
0003b0 a5 be fd 3d e1 53 e7 bc 97 13 34 be 32 eb 9c bd
       0.12389878 -0.028238239 -0.17585598 -0.076620474
0003c0 44 6a 3f bd 10 39 36 3e 82 ea 91 3c d7 0f 39 3e
       -0.046732202 0.17795205 0.017812017 0.18072449
0003d0 37 45 cd 3d 07 99 48 be 4a be 08 be a0 b6 7b be
       0.10022967 -0.19589625 -0.1335384 -0.24581385
0003e0 4d 08 0e be 6f 04 b0 3d 3f 45 32 3d 36 cc 91 3c
       -0.13870354 0.08594596 0.04352307 0.01779757
0003f0 af 66 6a 3d 04 5a 4c be e7 f8 0a be 0e 16 bb 3c
       0.057226833 -0.19956213 -0.13571511 0.022837665

weight f4 [16]
000000 90 9e be 3f 9b e8 af 3f 9d 7f b5 3f 61 80 cd 3f
       1.489214 1.374286 1.417957 1.6054803
000010 f4 7c c2 3f 98 b8 e1 3f 13 b5 bb 3f 11 1d be 3f
       1.5194383 1.7634459 1.4664634 1.485262
000020 7b 68 e3 3f be fa bc 3f cd 8e c5 3f 9b d0 bd 3f
       1.776626 1.476402 1.5434204 1.4829286
000030 f5 15 99 3f e4 cf ce 3f 85 d7 bc 3f ba b1 d3 3f
       1.1959826 1.6157193 1.4753271 1.6538613

bias f4 [16]
000000 3b b0 cc bd e6 d9 5a bc 0a a5 a6 bd 8f 1b 9a 3d
       -0.09994551 -0.013357615 -0.081369475 0.07524788
000010 36 ac 12 3e 45 e4 77 3e 6f 76 d8 bd 8c b3 ec bd
       0.14323506 0.24208172 -0.105694644 -0.11557683
000020 1b 64 ae 3d e9 ce c4 3d 1a 18 48 3e 53 14 1c 3c
       0.08515187 0.096097775 0.19540444 0.00952633
000030 5f 8d f7 3d 40 ad d6 3d 62 c8 44 3d b7 f1 16 3e
       0.12087511 0.104822636 0.048042662 0.14740644

running_mean f4 [16]
000000 2b cf 64 be cf f5 3f bd e0 34 9e be 55 f1 15 bf
       -0.22344653 -0.04686528 -0.30899715 -0.5857137
000010 a1 c9 49 3e 2b 4a 4e 3e 8f 28 f8 be cd a6 a2 be
       0.19705822 0.2014548 -0.48468444 -0.31767884
000020 1a d2 43 be 9b ba ca bc 20 70 64 3d db 88 f7 ba
       -0.19123116 -0.024747184 0.055770993 -0.0018885391
000030 aa 8e 00 3e 40 96 00 be 05 46 f4 bd 84 0e 2c 3d
       0.12554422 -0.12557316 -0.11927418 0.04200603

running_var f4 [16]
000000 b4 5a 38 3e c3 83 0e 3e f7 8f 13 3e e0 88 91 3e
       0.1800335 0.1391745 0.14410387 0.2842474
000010 8a ed 17 3e ab 2b 59 3e ca 1e 3e 3e 65 55 1b 3e
       0.14836708 0.21208064 0.18566433 0.15169294
000020 a9 a9 ac 3d 46 67 84 3d 88 e8 ab 3d 86 8e 35 3d
       0.084307976 0.0646501 0.08393961 0.044325374
000030 7a e9 74 3d 67 9d 51 3d 4e 56 70 3d d9 d1 9d 3d
       0.059792973 0.0511755 0.058676057 0.07706041

weight f4 [64, 96]
000000 0f e6 46 3d 38 57 9b 3c 2d 61 63 bd 05 3d 45 bc
       0.048559245 0.018962488 -0.055512596 -0.012038474
000010 7c aa 9a 3d 76 b7 87 bd 15 f1 97 3d 30 f0 64 bd
       0.075520486 -0.06626789 0.074190296 -0.055893123
000020 93 73 f5 3d d0 71 eb 3c 91 13 69 3d c0 93 5e 3d
       0.11984935 0.028740793 0.056903426 0.054340124
000030 05 1b cf 3d e0 b4 12 3e 12 43 9b 3a 44 c4 b9 bd
       0.101125754 0.14326811 0.001184555 -0.09070638
000040 ac 72 af 3c 0c ee f6 bc dc 75 af bd e5 78 10 bc
       0.021416984 -0.030142806 -0.08567402 -0.008817886
000050 f2 3d f0 3c ed c8 9f 3d 34 d4 09 be 1e bc 66 bd
       0.029326413 0.078019954 -0.13459855 -0.056331746
000060 22 2c 64 bc e1 4a c3 3d 38 c8 1e 3e 40 66 73 3d
       -0.013926538 0.095357664 0.15506065 0.059423685
000070 e1 af 5e bc 8e 6d 67 3d 7e 14 b1 bd 01 8a e7 3d
       -0.0135917375 0.056500964 -0.08646487 0.11305619
000080 02 d0 72 bd 5e 13 73 3d c9 3d ea bd 4c 58 72 3d
       -0.059280403 0.059344642 -0.11437566 0.059166238
000090 f0 7b e5 bd d3 f2 d8 3d 24 3c 0a 3e 4b d6 d4 3d
       -0.1120528 0.1059319 0.13499504 0.10392436
0000a0 ba ed cd 3c a0 01 8d 3b 6a f0 ac bd 3d 9a 90 3d
       0.02513777 0.004303172 -0.08444293 0.070606686
0000b0 b9 4a 11 be ae 49 8b 3d 1c f3 9f 3d ae c3 90 bc
       -0.1418866 0.06801163 0.07810041 -0.017671432
0000c0 05 88 bb 3d 09 30 46 bd 45 ce c2 bd 00 5e 96 bd
       0.09156803 -0.048385654 -0.09511999 -0.07342148
0000d0 60 fa d2 3c 9f bf 7b bd c1 35 02 3c 4c 41 11 bd
       0.025754154 -0.06146204 0.007947386 -0.035462663
0000e0 c7 5a 0d 3d 50 7b c6 bd 19 50 2e be 3f 01 17 bd
       0.0345104 -0.09691489 -0.17022742 -0.036866423
0000f0 ce 9b b0 3c 7f 84 94 3c 1b 40 ca 3c c1 b7 2e 3c
       0.021558668 0.018129585 0.024688771 0.0106639275
000100 d1 88 8d 3d 07 65 09 be 70 87 06 be 1c 41 5b 3d
       0.06910861 -0.13417445 -0.13137603 0.05352889
000110 7a 6b b8 bd 8a b2 4a be ed 4c a0 3d 62 a1 51 3d
       -0.090048745 -0.1979467 0.078271724 0.051179297
000120 34 68 c1 bd 10 02 6a 3d 22 31 2a 3e ab d5 ce 3d
       -0.09443703 0.057130873 0.16620305 0.10099348
000130 ed 39 32 3d 5a 1e 59 bd b8 e2 a7 bd 97 c8 57 bd
       0.043512274 -0.05300746 -0.0819754 -0.05268153
000140 23 ef ed 3d b1 79 8d 3b aa 0d 2a bd b6 22 23 3e
       0.11617877 0.0043174853 -0.041516937 0.1593121
000150 66 3c 2e 3d 5b 08 df ba d1 75 0e 3e e9 df db 3d
       0.04253807 -0.001701604 0.13912131 0.10736067
000160 a7 58 84 3b 33 9c 86 bd f3 88 e5 bd 09 45 2f bd
       0.0040388885 -0.065727614 -0.112077616 -0.042790446
000170 15 b4 35 bd ed c9 9f bc 42 a2 cd 3d 6c ac e6 3c
       -0.044361193 -0.019505465 0.10040714 0.028158389
000180 d8 a5 fc 3c e3 c4 94 3b 3e a1 ba bc 14 2a 9d bd
       0.0308408 0.0045400723 -0.022781964 -0.076740414
000190 11 8f e5 3d c4 7b 18 be d4 c5 c1 3c c7 4a 31 3d
       0.112089284 -0.14890963 0.023653902 0.043284204
0001a0 5d 89 5a 3e 55 b8 11 bd f8 9b 27 3c ca 29 6d 3d
       0.21341462 -0.035576183 0.010230057 0.05790118
0001b0 2c e9 f1 3d 40 59 2a 3e f5 84 57 3d ec 0f d3 3c
       0.11812052 0.16635609 0.052617032 0.025764428
0001c0 20 5d c7 3d f8 af 44 bd 47 0b d8 bd 4c d0 84 bd
       0.09734559 -0.04801938 -0.10549026 -0.06485042
0001d0 d8 3c ae 3d 79 16 fc 3d d6 b0 08 bd f6 a2 b6 bc
       0.08507699 0.12308974 -0.03337177 -0.022294503
0001e0 e2 39 96 3c 26 a0 34 3d 90 27 d0 3d 2a 4f b0 3d
       0.018338148 0.044098042 0.10163796 0.08608849
0001f0 cb 9c cd bc b1 73 74 bc 64 ac 65 bd 60 a8 b8 bd
       -0.025099179 -0.014920161 -0.056072608 -0.0901649
000200 1d 3b 1e bd bd 12 e9 bd 92 c5 82 bd 90 d6 86 3d
       -0.038630594 -0.11380527 -0.0638534 0.06583893
000210 74 33 9e bd 68 98 14 3d ef 21 e8 3d 91 69 24 3e
       -0.07724658 0.03627816 0.11334597 0.16055895
000220 51 f2 00 be cc 78 df bd 5c f2 f2 bd cf d2 ee 3c
       -0.12592436 -0.10911712 -0.11862633 0.029153256
000230 a4 1f d0 bd 19 62 5d bd a6 de a3 3d 03 3f c7 3d
       -0.10162285 -0.05404863 0.08001451 0.097288154
000240 f6 96 f7 3c c8 16 78 3d b2 62 9e bd f0 0d f1 bc
       0.030223351 0.0605686 -0.077336684 -0.029425591
000250 00 b2 f3 bd 31 42 95 bb 81 df 22 3d 84 8c 4b 3d
       -0.11899185 -0.00455501 0.03976393 0.049694553
000260 b4 9d 1b 3d 5a 57 2b be c0 42 0c be 9b ce b0 3c
       0.037992194 -0.1673254 -0.13697338 0.021582892
000270 0c b4 c2 bc a6 3e de bd 5b 2a 59 bd 42 52 68 bd
       -0.023767494 -0.10851793 -0.05301891 -0.056719072
000280 7c 77 cf 3d 1d b4 9e 3c f5 9e 3b bd e5 a9 df bd
       0.10130212 0.019372994 -0.04580589 -0.10921077
000290 27 2d 84 3d 44 15 2e be 9e c5 f5 3c b3 56 fd bc
       0.064539246 -0.170003 0.030001458 -0.03092513
0002a0 cd 34 83 bc 51 d3 d2 3d 23 de 4a 3e 42 37 88 3d
       -0.016016388 0.10294212 0.19811301 0.066511646
0002b0 8f ac fd bc c8 6a ec bd 2c a3 c7 3c d3 15 a8 bc
       -0.030966071 -0.115438044 0.024369799 -0.02051822
0002c0 7d a6 9c 3a 2f d5 c5 bc dd 24 9b 3c 60 af d9 3d
       0.0011951473 -0.024149505 0.018938476 0.10629153
0002d0 a7 18 a8 bc 31 e6 7b bb 99 67 a6 3d ae ce f2 3d
       -0.020519568 -0.0038436765 0.081252284 0.11855827
0002e0 e0 0f ef 3c 74 1b 3b 3c 44 89 f1 bd fa 65 9e 3d
       0.029182374 0.01142012 -0.117937595 0.07734294
0002f0 00 77 dd 3d 90 05 a0 3d 45 fd 73 bd 69 7c 6b 3d
       0.10813713 0.07813561 -0.05956771 0.057491694
000300 98 97 a8 bd e4 4f 32 bd 85 a1 4b 3d ae 45 6b 3d
       -0.08232039 -0.04353322 0.049714584 0.0574395
000310 c5 d0 1e 3e 85 d4 10 bd a2 97 6e bd 9d 60 58 3c
       0.15509327 -0.035358924 -0.058250077 0.013206628
000320 56 63 24 3e 08 a2 a7 3a f2 99 2c bd 13 ba 04 3e
       0.16053519 0.0012789378 -0.042139 0.12961607
000330 2c 7e 16 3c 1e 36 a5 3d 93 e7 6d bd 51 59 43 3d
       0.009185355 0.08066963 -0.058082175 0.0476926
000340 e4 2c 4c bd 35 08 2e bd 58 b2 e8 bc 69 46 86 3d
       -0.0498475 -0.042488296 -0.028405353 0.065563984
000350 a1 83 de 3d 11 29 22 3c 3d b3 dd bc 77 59 9d 3d
       0.1086495 0.009897486 -0.027063007 0.0768308
000360 cb 83 33 bb 97 ff 20 3c 31 f4 d3 3d 19 7e d8 bc
       -0.0027391787 0.009826562 0.1034931 -0.026427316
000370 48 90 e5 3b 9a 4d bd bd f8 e6 2e bd 44 57 a6 3d
       0.007005725 -0.09243317 -0.042700738 0.08122113
000380 76 53 a5 bd d3 dc d1 bc 63 6e 00 be ea 04 12 3e
       -0.080725595 -0.025617993 -0.12542109 0.14259687
000390 6e 18 76 bc aa d7 2b 3d 81 17 12 3d fe 9d 82 3d
       -0.015020473 0.04195372 0.035666946 0.06377791
0003a0 2c 54 50 3d 26 be 3e bd 22 ec d1 bd 4d 40 1b bc
       0.050861523 -0.04656806 -0.10250117 -0.00947578
0003b0 4c 49 3f bd 10 19 ba 3c 70 1a c4 3d 93 19 01 3e
       -0.04670076 0.022717029 0.09575355 0.12607412
0003c0 42 b8 bc 3c e3 d4 d0 3d 51 0f 75 3d 29 5f d1 bd
       0.02303708 0.10196855 0.05982906 -0.102232285
0003d0 61 93 97 3d f0 68 c1 bd 58 c7 89 3c 52 1c 32 bd
       0.07401157 -0.09443843 0.016818687 -0.04348404
0003e0 da 06 17 3d 15 4c 07 be 4a 31 5e be 39 1b 81 3d
       0.03687177 -0.13212617 -0.2169849 0.063040204
0003f0 55 4e fb 3c bd a2 63 3b 97 fa 51 bd 9f e5 2f bd
       0.030677 0.003473445 -0.05126437 -0.042943593

bias f4 [64]
000000 32 2d 55 3d 55 99 30 bc 56 2f d9 bd 92 3f 81 3d
       0.052045055 -0.010778745 -0.10604732 0.06310953
000010 f6 25 b3 bd 91 6c a8 bd 1a 44 0c bd f3 22 6b bd
       -0.08747475 -0.082238324 -0.034244634 -0.057406377
000020 59 e6 bf 3c ac db 93 bd 96 29 1b 3d 7f b4 4c bd
       0.023425268 -0.072196335 0.037881456 -0.049976822
000030 54 8b ad bd fa 7d b1 bd 74 0f a8 3d cb 2e 25 bd
       -0.0847384 -0.08666606 0.082060724 -0.04032783
000040 f9 50 d8 bc 74 77 73 bd 06 f6 80 3d 6d 24 72 bd
       -0.026405798 -0.05944009 0.06296925 -0.05911677
000050 57 d8 c4 bd af 23 cd 3d eb 0c 57 bd 22 6b c3 3d
       -0.09611576 0.10016572 -0.052502554 0.09541918
000060 13 8c 6a bd cb 56 8d bc af 76 92 3d 1e ad 9a 3d
       -0.05726249 -0.0172533 0.07151543 0.07552551
000070 8d 54 eb bd e0 16 5c 3d 96 a3 d4 bd e0 fb dc 3d
       -0.11490736 0.053732753 -0.10382764 0.10790229
000080 ad 0e 9e bc 9a f2 c7 bd 16 a2 01 3d 73 4e 04 be
       -0.019294107 -0.097630695 0.031648718 -0.12920551
000090 77 94 db bc 55 42 0f 3d 8c 36 8b 3d a5 5f 96 bc
       -0.026804192 0.03497537 0.06797513 -0.018356154
0000a0 e4 db 23 bd d9 0e 5e 3d 58 29 7a 3d 52 d7 e3 3d
       -0.040004626 0.05421338 0.061074585 0.111250535
0000b0 16 a1 80 3d 57 6b 34 bd 3e 3b dc bd 5f f7 d3 3d
       0.06280725 -0.04404768 -0.10753487 0.10349917
0000c0 32 b8 f2 bd 67 a5 28 bd fe b1 7e 3d a5 e8 c2 bc
       -0.11851539 -0.041173365 0.062181465 -0.023792574
0000d0 22 ef 78 3d 5a 60 84 ba b3 35 13 3e b5 b7 35 bd
       0.06077493 -0.0010099516 0.14375953 -0.04436465
0000e0 2a f7 74 bd e9 6a f3 bc 7d cb 7d bd ed 63 36 bd
       -0.059806027 -0.029714065 -0.06196164 -0.04452889
0000f0 ed e9 e2 bd 37 a1 9f 3d a1 24 10 bc 0c 31 b7 bd
       -0.11079774 0.07794421 -0.0087977955 -0.08944902

weight f4 [1, 64]
000000 d9 2e 00 3f db a3 1d 3f 04 f0 01 3f fc d6 40 be
       0.50071484 0.6157815 0.5075686 -0.1883201
000010 de 90 04 3f 95 d5 79 3e 57 34 3c bc ef aa 46 3e
       0.5178355 0.24397881 -0.011487088 0.19401143
000020 a0 e6 6d bd cb 75 67 3d 8e 7a 83 bd dc 2d d3 bd
       -0.05808127 0.05650882 -0.0641986 -0.10311481
000030 ef 8f ac 3e 1b 53 02 3f 83 29 16 be 2f ec 24 be
       0.33703563 0.5090806 -0.14664273 -0.16105722
000040 f3 8c 60 3d 36 3b e9 3d 7b ec 2c be 86 84 a2 bd
       0.05482192 0.11388247 -0.16887085 -0.07935433
000050 b4 fa 81 3f eb bf 7b be 4e 84 a8 3f 02 e6 bd bd
       1.0154634 -0.2458493 1.3165376 -0.09272386
000060 b8 d1 45 3f 56 73 42 3f 53 2c b3 be 4e 4a 7a 3d
       0.7727313 0.7595724 -0.34994754 0.06110602
000070 ab f0 93 3f 78 99 d1 3e 85 b3 be 3d 09 18 67 be
       1.1557821 0.409374 0.093115844 -0.22567762
000080 94 a4 99 3f 5c 8c b7 3d 55 0c 9e 3c fe d9 2b 3f
       1.200335 0.08962318 0.01929299 0.67129505
000090 4a 92 32 be 18 8c 23 be b5 39 d5 bd b1 e8 55 3d
       -0.17438617 -0.1597141 -0.10411397 0.052223865
0000a0 4d 35 e6 bc 8c 49 13 3e 2a cd 23 3d a9 7f 04 be
       -0.028101588 0.14383525 0.03999058 -0.12939323
0000b0 9f 4f aa bd 3e 87 ab 3e 76 66 02 3f 7b 29 a5 bd
       -0.08315968 0.3350162 0.50937593 -0.080645524
0000c0 6e 70 12 3f f2 db 22 3d 68 33 b0 bd 53 35 0b be
       0.57202804 0.039760537 -0.08603555 -0.1359456
0000d0 fd 34 4b bd b7 f4 50 3d 3e 69 86 be 21 b1 52 3e
       -0.04961108 0.05101463 -0.26252168 0.20575382
0000e0 41 25 01 be e9 e5 a6 3d bf 75 98 bd c1 55 b5 bc
       -0.12611867 0.08149321 -0.07444333 -0.022135617
0000f0 fb 51 c2 3e fc 32 27 3e f4 c2 2c 3f 6f 0b 80 3e
       0.3795317 0.16328043 0.67484975 0.25008723

weight f4 [64, 96]
000000 3d 10 07 bd d2 a2 38 bd 8e 23 92 bc be 51 11 bd
       -0.03297447 -0.045077153 -0.01783922 -0.035478346
000010 42 7e 20 3e 40 08 ca bd 34 9a 30 bd 05 ae 46 bd
       0.15673164 -0.09864855 -0.04311581 -0.0485058
000020 d6 e9 2e bd 98 e6 9c 3e c2 e0 02 3d c8 e5 9b bd
       -0.042703472 0.3064468 0.031952627 -0.07612187
000030 54 02 b8 3b d4 81 81 bd 12 d4 08 3d eb cf 9f bd
       0.005615512 -0.06323591 0.03340537 -0.07803329
000040 da c6 77 bd e9 22 f3 3d fd e6 6b 3d fe 38 12 bc
       -0.060492374 0.11871893 0.057593334 -0.008924721
000050 33 7c 2f bd a2 72 28 3d 90 c0 de 3d ac df e9 3c
       -0.042843055 0.041124947 0.10876572 0.028549038
000060 9f 01 20 3e b1 df 9d 3d 78 c8 82 3d 7c ea 33 3d
       0.15625618 0.077086814 0.06385893 0.043924794
000070 e3 fb db 3d 20 69 21 3d 52 8a ec bd bd 0f d2 bd
       0.10741403 0.039406896 -0.1154982 -0.10256908
000080 d8 3d f0 3d 67 63 a6 bd aa b1 26 be 65 26 92 3d
       0.11730546 -0.08124428 -0.16278711 0.071362294
000090 e3 75 3a bd 13 97 a2 bd fc 15 e7 3d ab ff 97 3e
       -0.04552258 -0.07938971 0.1128349 0.29687247
0000a0 6a 63 f8 3d 66 0e 28 bd d0 42 bc bc 6c dd bc 3d
       0.12128337 -0.041029356 -0.022981077 0.0922192
0000b0 27 46 30 bd 39 5e 95 bc 06 5a 9c 3c 6a 4b c1 bd
       -0.043035652 -0.018233405 0.019085895 -0.09438212
0000c0 ff 93 cd bc b8 56 da bd 92 e8 6a bd b5 84 df 3d
       -0.025094984 -0.106610715 -0.057350703 0.10913984
0000d0 0b d1 e8 bd 93 23 e2 bd 7e 5a 62 bd a0 0e 78 3d
       -0.11367997 -0.110419415 -0.05526208 0.060560822
0000e0 71 38 f0 3d 5b db a5 bd 40 8d c2 3d 59 c6 a8 3d
       0.11729515 -0.08098479 0.094995975 0.08240957
0000f0 60 f0 a6 bd e5 53 de 3c 41 55 99 bd 46 aa 4d 3e
       -0.08151317 0.027139613 -0.07486964 0.20084485
000100 77 07 64 3c d9 a9 11 3d 70 d3 76 bc d3 67 99 bc
       0.013917795 0.03556237 -0.015065059 -0.018726265
000110 b6 04 da 3d 58 20 26 3c 60 b0 f1 bd c2 74 aa 3d
       0.1064543 0.010139547 -0.11801219 0.08323051
000120 7a 91 0c 3c 47 4b dc bd d1 23 02 3e bf ce 84 3d
       0.008579606 -0.107565455 0.12708975 0.06484746
000130 5d 02 81 3d a9 46 21 3e d5 42 c7 3d 10 39 85 3d
       0.06299279 0.15749611 0.09729544 0.065050244
000140 60 87 93 bd 3f 4c aa bc 85 fa 89 3d d2 d2 48 bd
       -0.07203555 -0.02078831 0.06737236 -0.04902918
000150 33 ca 16 bd 19 3f 5d bd 98 6a 44 3d 64 c1 11 3b
       -0.036813926 -0.054015253 0.04795322 0.0022240514
000160 e6 46 7e 3e 0f e1 ed 3d 59 cf 2c bc a6 de cb 3d
       0.24831733 0.11615192 -0.010547482 0.09954576
000170 7b d3 89 3c 4f 8e b2 bd 1a 82 28 3c 6a 9c 9c 3c
       0.016824475 -0.087185495 0.010284925 0.019117553
000180 50 68 4d 3c 32 fe af ba 59 b2 9e bd 59 34 a8 bd
       0.012537077 -0.0013427197 -0.07748861 -0.082131095
000190 ef 8b 4d bc 5b b5 5f 3d 23 98 48 bd 56 97 a4 3d
       -0.01254557 0.054616313 -0.048973214 0.080366775
0001a0 02 70 c1 bd 8e 7b 8a bc af 20 a6 bd 63 e5 9d bc
       -0.09445192 -0.016904619 -0.08111703 -0.01927442
0001b0 b9 64 51 3d cc 9f 70 3d 2d ba 58 bd 66 fb 67 bd
       0.051121447 0.058746144 -0.052911926 -0.056636237
0001c0 d9 d9 34 3c 39 8e 6d bd 13 eb 9d bc 94 a9 7d bc
       0.011038267 -0.057996962 -0.019277131 -0.015482325
0001d0 a1 bb a6 bd 93 6f 4c bc 25 8b 63 bc 70 16 4a 3c
       -0.08141256 -0.012477773 -0.013888155 0.012334451
0001e0 2b 2a 61 bd 6b 54 b8 bd fd a4 82 bc 35 c8 7b 3c
       -0.054971855 -0.090004764 -0.015947813 0.015367557
0001f0 02 f4 5a bc f8 c0 80 3d 6c 47 05 3d b6 35 6a bc
       -0.01336384 0.06286806 0.032538816 -0.014295032
000200 78 14 c9 3d b4 db e7 bc 34 a2 98 bd a4 a9 ca bd
       0.09818357 -0.028303005 -0.07452813 -0.09895638
000210 7c b6 64 bd c9 35 c4 bd 35 ec 46 3c 42 eb 41 3d
       -0.055838093 -0.09580571 0.012141277 0.0473435
000220 cd 74 89 bb 6d 73 81 bd ac a2 22 bd 95 1b 90 bd
       -0.004194832 -0.06320844 -0.039705917 -0.07036511
000230 57 20 82 bd 9a 80 c9 bd c6 a7 c2 3d cf 34 0e 3d
       -0.063538246 -0.09838982 0.095046565 0.03471833
000240 29 1a bd 3c 98 0c 1a 3d 37 59 ca 3d 1f 16 9c 3d
       0.023083763 0.037609667 0.09880298 0.07621407
000250 75 af 9a bd 67 a3 93 bd ff 15 ed 3c eb 54 8d bd
       -0.07552997 -0.07208901 0.028941153 -0.069009624
000260 44 3f 81 3c 4e 24 ca bd 13 8c 4b bd 7a 1c 56 bd
       0.015777238 -0.09870206 -0.049694132 -0.05227325
000270 16 39 d4 3c 0c cc 83 3d 5d f2 49 3d bd e5 8e bd
       0.025906127 0.06435403 0.0493034 -0.06977413
000280 3d c5 ca 3c af 41 74 3d a4 fa c7 bd 26 d5 1e 3d
       0.024752254 0.059632953 -0.09764603 0.038777493
000290 c3 f0 05 bc 80 2d 58 bd 72 4d ba 3c 84 6e 62 bd
       -0.008175078 -0.052777767 0.022742007 -0.055281177
0002a0 fb 5d a8 bd 22 94 17 bd 40 4d 6c bd 65 52 0b bd
       -0.0822105 -0.037006505 -0.05769086 -0.034014124
0002b0 42 63 bf 3c 74 90 8f 3c bb c5 8f 3d d8 78 9e bd
       0.02336276 0.017524935 0.07020136 -0.07737893
0002c0 5d 3a 25 3d ec 34 86 bd ec 82 32 3d 03 3d 4e bd
       0.040338863 -0.06553063 0.043581888 -0.050351154
0002d0 14 f1 7a 3c fa 64 a5 bd f3 9b 65 3d 2f 4c d0 bd
       0.015316267 -0.080759004 0.056056928 -0.10170781
0002e0 c2 dd 6b 3d 00 d0 41 3d 88 bf a8 3d e6 28 f4 bc
       0.05758453 0.047317505 0.08239657 -0.029804658
0002f0 c1 5e 74 bc 3e dc 9d 3d 64 45 aa bd 8d df 70 bd
       -0.014915169 0.077080235 -0.083140165 -0.058806945
000300 ed 89 de 3d 15 6f da bc 3c 07 4a bd ad c7 9f 3a
       0.10866151 -0.026664296 -0.049323305 0.0012190245
000310 53 49 2c 3d 61 9e 89 bc ca ec 06 bd e3 66 d5 3d
       0.042062115 -0.016799154 -0.032940663 0.10420015
000320 7a 2c 53 bd cb 13 56 bc 4e 95 29 bd f5 bd 85 bd
       -0.051556088 -0.013066242 -0.041402154 -0.06530372
000330 c3 b7 0e bd 62 0e c0 3d b6 13 92 bd 5f 83 1d bd
       -0.034843218 0.09377743 -0.07132666 -0.038455363
000340 6f 73 95 3d 58 3d 90 bd ea ca c0 bd 09 c2 5e bd
       0.07297408 -0.070429504 -0.09413703 -0.054384265
000350 86 8c b2 bd 16 a7 b4 3c 15 b5 ad 3d b1 2e 44 bd
       -0.08718209 0.022052329 0.08481804 -0.04789609
000360 8c f8 7d 3c bd 38 cd bc 49 ff a9 bd 90 fa cd bd
       0.015501153 -0.025051469 -0.08300645 -0.10057557
000370 f8 d7 af 3c 72 1a 3f bd be 56 22 3b da 6b 26 bd
       0.021465287 -0.04665608 0.002477094 -0.0406302
000380 60 70 22 3d 8c b0 5e 3b 5a 47 cf 3d 1f c0 c1 3c
       0.03965795 0.0033979742 0.10121031 0.02365118
000390 88 25 6a 3d 61 24 7e 3d 3c 1c 46 bd 24 db 45 bd
       0.0571647 0.062046412 -0.04836677 -0.048304692
0003a0 91 d8 3f bd 08 c2 83 bd de b9 09 bd ac 4a 95 bd
       -0.046837393 -0.06433493 -0.033624522 -0.07289633
0003b0 55 35 0b bd 78 50 72 3c 45 ce 46 bd bc 7f 51 3d
       -0.03398641 0.014789693 -0.048536558 0.051147208
0003c0 69 f4 44 3c 03 87 55 3d 9f 4b 47 bd cc 83 94 3d
       0.012021163 0.05213071 -0.048656102 0.07251701
0003d0 53 a2 b9 bd d8 51 9f bd 8a f9 6d 3d e6 97 07 3d
       -0.09064164 -0.07779282 0.058099307 0.033103846
0003e0 e8 97 49 bb 81 6a ac 3d 8e 1e c0 bd 50 a5 f1 bc
       -0.003076071 0.084187515 -0.09380828 -0.029497772
0003f0 13 94 8f 3d 53 f5 70 3a 24 19 af bd 98 27 51 bd
       0.07010665 0.00091918296 -0.08549717 -0.05106315

bias f4 [64]
000000 f6 59 47 3d b3 5e a8 3d 2b ac 2f 3d 72 05 9c bd
       0.048669778 0.082211874 0.0428888 -0.07618226
000010 ba 72 92 3d 6c 13 be bd 7b 7a 5d bd 78 a8 9c 3d
       0.071507886 -0.09281048 -0.054071885 0.0764932
000020 52 14 91 bd 82 a5 ee bb bd 47 04 3d 56 45 08 3d
       -0.07083954 -0.0072829137 0.032294977 0.03326925
000030 c0 10 1f 3d fe 9f 0e 3d 71 fc ee 3c 0f 99 6c bc
       0.038834333 0.03482055 0.029173108 -0.014440789
000040 03 ff ad 3c a7 4d 50 bd a9 6c c0 bd 5f b1 ae bd
       0.021239763 -0.050855305 -0.09395725 -0.085299246
000050 18 29 2c 3e 4d 46 7c 3d 71 d9 db bd 5a 10 e7 bd
       0.16812551 0.06159048 -0.10734833 -0.11282416
000060 9c ab e2 bb 9e 52 7e bd 6b f1 75 3d 00 7f da 3c
       -0.00691743 -0.06209051 0.060044687 0.026671886
000070 2c 6b 54 3d a6 73 85 3d 5a 20 15 3d 5b 74 cf bd
       0.05186002 0.06516199 0.036407806 -0.10129615
000080 6d 80 fd 3c c9 0f 50 bd 04 9c f8 bc 42 20 a5 bd
       0.030945027 -0.050796304 -0.030347832 -0.08062793
000090 14 81 c1 bb 3b f8 9a bd bc 12 6f 3d a3 cf 3f 3d
       -0.00590528 -0.075668775 0.058367476 0.046828877
0000a0 af 4f 7d 3d c8 84 72 3d 72 d2 33 3d b9 ad be bc
       0.06184357 0.05920866 0.04390187 -0.023276197
0000b0 a7 04 08 3e 1e 76 21 bd fd 34 79 bd 14 c8 36 3c
       0.13283025 -0.039419286 -0.06084155 0.011156101
0000c0 74 06 65 3d c8 e5 04 3d 11 51 38 bd 04 8e b7 bd
       0.055914357 0.0324457 -0.044999186 -0.08962634
0000d0 1f ae 73 3d 43 d9 03 3e 75 8a c4 3d 62 70 6e bc
       0.059492227 0.12875848 0.09596721 -0.014553161
0000e0 5e 23 45 bd 6d 10 ad 3d 77 ab 91 3d e4 6f c6 bd
       -0.048129432 0.084503986 0.071127824 -0.0968931
0000f0 6b 2f a1 3d fa 5c 65 3c db 59 02 3e c7 97 7c bd
       0.078703724 0.013999218 0.1272959 -0.061668184
